…
WARNING:absl:ring_buffer_size_in_time_dim overwritten by the passed-in value: 4
WARNING:absl:ring_buffer_size_in_time_dim overwritten by the passed-in value: 10
WARNING:absl:ring_buffer_size_in_time_dim overwritten by the passed-in value: 14
WARNING:absl:ring_buffer_size_in_time_dim overwritten by the passed-in value: 22
WARNING:absl:ring_buffer_size_in_time_dim overwritten by the passed-in value: 36
Model: "functional"
┏━━━━━━━━━━━━━━━━━━━━━┳━━━━━━━━━━━━━━━━━━━┳━━━━━━━━━━━━┳━━━━━━━━━━━━━━━━━━━┓
┃ Layer (type)        ┃ Output Shape      ┃    Param # ┃ Connected to      ┃
┡━━━━━━━━━━━━━━━━━━━━━╇━━━━━━━━━━━━━━━━━━━╇━━━━━━━━━━━━╇━━━━━━━━━━━━━━━━━━━┩
│ input_layer         │ (16, 178, 40)     │          0 │ -                 │
│ (InputLayer)        │                   │            │                   │
├─────────────────────┼───────────────────┼────────────┼───────────────────┤
│ expand_dims         │ (16, 178, 1, 40)  │          0 │ input_layer[0][0] │
│ (ExpandDims)        │                   │            │                   │
├─────────────────────┼───────────────────┼────────────┼───────────────────┤
│ stream (Stream)     │ (16, 87, 1, 32)   │      6,400 │ expand_dims[0][0] │
├─────────────────────┼───────────────────┼────────────┼───────────────────┤
│ activation          │ (16, 87, 1, 32)   │          0 │ stream[0][0]      │
│ (Activation)        │                   │            │                   │
├─────────────────────┼───────────────────┼────────────┼───────────────────┤
│ stream_1 (Stream)   │ (16, 87, 1, 32)   │          0 │ activation[0][0]  │
├─────────────────────┼───────────────────┼────────────┼───────────────────┤
│ depthwise_conv2d    │ (16, 83, 1, 32)   │        192 │ stream_1[0][0]    │
│ (DepthwiseConv2D)   │                   │            │                   │
├─────────────────────┼───────────────────┼────────────┼───────────────────┤
│ conv2d_1 (Conv2D)   │ (16, 83, 1, 64)   │      2,048 │ depthwise_conv2d… │
├─────────────────────┼───────────────────┼────────────┼───────────────────┤
│ batch_normalization │ (16, 83, 1, 64)   │        256 │ conv2d_1[0][0]    │
│ (BatchNormalizatio… │                   │            │                   │
├─────────────────────┼───────────────────┼────────────┼───────────────────┤
│ activation_1        │ (16, 83, 1, 64)   │          0 │ batch_normalizat… │
│ (Activation)        │                   │            │                   │
├─────────────────────┼───────────────────┼────────────┼───────────────────┤
│ stream_2 (Stream)   │ (16, 83, 1, 64)   │          0 │ activation_1[0][… │
├─────────────────────┼───────────────────┼────────────┼───────────────────┤
│ channel_split       │ [(16, 83, 1, 32), │          0 │ stream_2[0][0]    │
│ (ChannelSplit)      │ (16, 83, 1, 32)]  │            │                   │
├─────────────────────┼───────────────────┼────────────┼───────────────────┤
│ strided_keep        │ (16, 83, 1, 32)   │          0 │ channel_split[0]… │
│ (StridedKeep)       │                   │            │                   │
├─────────────────────┼───────────────────┼────────────┼───────────────────┤
│ strided_keep_1      │ (16, 83, 1, 32)   │          0 │ channel_split[0]… │
│ (StridedKeep)       │                   │            │                   │
├─────────────────────┼───────────────────┼────────────┼───────────────────┤
│ depthwise_conv2d_1  │ (16, 77, 1, 32)   │        256 │ strided_keep[0][… │
│ (DepthwiseConv2D)   │                   │            │                   │
├─────────────────────┼───────────────────┼────────────┼───────────────────┤
│ depthwise_conv2d_2  │ (16, 73, 1, 32)   │        384 │ strided_keep_1[0… │
│ (DepthwiseConv2D)   │                   │            │                   │
├─────────────────────┼───────────────────┼────────────┼───────────────────┤
│ strided_drop        │ (16, 73, 1, 32)   │          0 │ depthwise_conv2d… │
│ (StridedDrop)       │                   │            │                   │
├─────────────────────┼───────────────────┼────────────┼───────────────────┤
│ strided_drop_1      │ (16, 73, 1, 32)   │          0 │ depthwise_conv2d… │
│ (StridedDrop)       │                   │            │                   │
├─────────────────────┼───────────────────┼────────────┼───────────────────┤
│ concatenate         │ (16, 73, 1, 64)   │          0 │ strided_drop[0][… │
│ (Concatenate)       │                   │            │ strided_drop_1[0… │
├─────────────────────┼───────────────────┼────────────┼───────────────────┤
│ conv2d_2 (Conv2D)   │ (16, 73, 1, 64)   │      4,096 │ concatenate[0][0] │
├─────────────────────┼───────────────────┼────────────┼───────────────────┤
│ batch_normalizatio… │ (16, 73, 1, 64)   │        256 │ conv2d_2[0][0]    │
│ (BatchNormalizatio… │                   │            │                   │
├─────────────────────┼───────────────────┼────────────┼───────────────────┤
│ activation_2        │ (16, 73, 1, 64)   │          0 │ batch_normalizat… │
│ (Activation)        │                   │            │                   │
├─────────────────────┼───────────────────┼────────────┼───────────────────┤
│ stream_3 (Stream)   │ (16, 73, 1, 64)   │          0 │ activation_2[0][… │
├─────────────────────┼───────────────────┼────────────┼───────────────────┤
│ channel_split_1     │ [(16, 73, 1, 32), │          0 │ stream_3[0][0]    │
│ (ChannelSplit)      │ (16, 73, 1, 32)]  │            │                   │
├─────────────────────┼───────────────────┼────────────┼───────────────────┤
│ strided_keep_2      │ (16, 73, 1, 32)   │          0 │ channel_split_1[… │
│ (StridedKeep)       │                   │            │                   │
├─────────────────────┼───────────────────┼────────────┼───────────────────┤
│ strided_keep_3      │ (16, 73, 1, 32)   │          0 │ channel_split_1[… │
│ (StridedKeep)       │                   │            │                   │
├─────────────────────┼───────────────────┼────────────┼───────────────────┤
│ depthwise_conv2d_3  │ (16, 65, 1, 32)   │        320 │ strided_keep_2[0… │
│ (DepthwiseConv2D)   │                   │            │                   │
├─────────────────────┼───────────────────┼────────────┼───────────────────┤
│ depthwise_conv2d_4  │ (16, 59, 1, 32)   │        512 │ strided_keep_3[0… │
│ (DepthwiseConv2D)   │                   │            │                   │
├─────────────────────┼───────────────────┼────────────┼───────────────────┤
│ strided_drop_2      │ (16, 59, 1, 32)   │          0 │ depthwise_conv2d… │
│ (StridedDrop)       │                   │            │                   │
├─────────────────────┼───────────────────┼────────────┼───────────────────┤
│ strided_drop_3      │ (16, 59, 1, 32)   │          0 │ depthwise_conv2d… │
│ (StridedDrop)       │                   │            │                   │
├─────────────────────┼───────────────────┼────────────┼───────────────────┤
│ concatenate_1       │ (16, 59, 1, 64)   │          0 │ strided_drop_2[0… │
│ (Concatenate)       │                   │            │ strided_drop_3[0… │
├─────────────────────┼───────────────────┼────────────┼───────────────────┤
│ conv2d_3 (Conv2D)   │ (16, 59, 1, 64)   │      4,096 │ concatenate_1[0]… │
├─────────────────────┼───────────────────┼────────────┼───────────────────┤
│ batch_normalizatio… │ (16, 59, 1, 64)   │        256 │ conv2d_3[0][0]    │
│ (BatchNormalizatio… │                   │            │                   │
├─────────────────────┼───────────────────┼────────────┼───────────────────┤
│ activation_3        │ (16, 59, 1, 64)   │          0 │ batch_normalizat… │
│ (Activation)        │                   │            │                   │
├─────────────────────┼───────────────────┼────────────┼───────────────────┤
│ stream_4 (Stream)   │ (16, 59, 1, 64)   │          0 │ activation_3[0][… │
├─────────────────────┼───────────────────┼────────────┼───────────────────┤
│ depthwise_conv2d_5  │ (16, 37, 1, 64)   │      1,536 │ stream_4[0][0]    │
│ (DepthwiseConv2D)   │                   │            │                   │
├─────────────────────┼───────────────────┼────────────┼───────────────────┤
│ conv2d_4 (Conv2D)   │ (16, 37, 1, 64)   │      4,096 │ depthwise_conv2d… │
├─────────────────────┼───────────────────┼────────────┼───────────────────┤
│ batch_normalizatio… │ (16, 37, 1, 64)   │        256 │ conv2d_4[0][0]    │
│ (BatchNormalizatio… │                   │            │                   │
├─────────────────────┼───────────────────┼────────────┼───────────────────┤
│ activation_4        │ (16, 37, 1, 64)   │          0 │ batch_normalizat… │
│ (Activation)        │                   │            │                   │
├─────────────────────┼───────────────────┼────────────┼───────────────────┤
│ stream_5 (Stream)   │ (16, 37, 1, 64)   │          0 │ activation_4[0][… │
├─────────────────────┼───────────────────┼────────────┼───────────────────┤
│ flatten (Flatten)   │ (16, 2368)        │          0 │ stream_5[0][0]    │
├─────────────────────┼───────────────────┼────────────┼───────────────────┤
│ dense (Dense)       │ (16, 1)           │      2,369 │ flatten[0][0]     │
└─────────────────────┴───────────────────┴────────────┴───────────────────┘
 Total params: 27,329 (106.75 KB)
 Trainable params: 26,817 (104.75 KB)
 Non-trainable params: 512 (2.00 KB)
INFO:absl:None
INFO:absl:Step #500: rate 0.001000, accuracy 96.82%, recall 84.48%, precision 92.73%, cross entropy 0.096670
INFO:absl:Step 500 (nonstreaming): Validation: recall at no faph = 0.000 with cutoff 1.00, accuracy = 96.41%, recall = 96.41%, precision = 100.00%, ambient false positives = 2075, estimated false positives per hour = 214.57063, loss = 0.05565, auc = 0.99664, average viable recall = 0.121881641
…
WARNING:absl:ring_buffer_size_in_time_dim overwritten by the passed-in value: 10
WARNING:absl:ring_buffer_size_in_time_dim overwritten by the passed-in value: 14
WARNING:absl:ring_buffer_size_in_time_dim overwritten by the passed-in value: 22
WARNING:absl:ring_buffer_size_in_time_dim overwritten by the passed-in value: 36
Model: "functional_1"
┏━━━━━━━━━━━━━━━━━━━━━┳━━━━━━━━━━━━━━━━━━━┳━━━━━━━━━━━━┳━━━━━━━━━━━━━━━━━━━┓
┃ Layer (type)        ┃ Output Shape      ┃    Param # ┃ Connected to      ┃
┡━━━━━━━━━━━━━━━━━━━━━╇━━━━━━━━━━━━━━━━━━━╇━━━━━━━━━━━━╇━━━━━━━━━━━━━━━━━━━┩
│ input_layer_1       │ (1, 178, 40)      │          0 │ -                 │
│ (InputLayer)        │                   │            │                   │
├─────────────────────┼───────────────────┼────────────┼───────────────────┤
│ expand_dims_1       │ (1, 178, 1, 40)   │          0 │ input_layer_1[0]… │
│ (ExpandDims)        │                   │            │                   │
├─────────────────────┼───────────────────┼────────────┼───────────────────┤
│ stream_6 (Stream)   │ (1, 87, 1, 32)    │      6,400 │ expand_dims_1[0]… │
├─────────────────────┼───────────────────┼────────────┼───────────────────┤
│ activation_5        │ (1, 87, 1, 32)    │          0 │ stream_6[0][0]    │
│ (Activation)        │                   │            │                   │
├─────────────────────┼───────────────────┼────────────┼───────────────────┤
│ stream_7 (Stream)   │ (1, 87, 1, 32)    │          0 │ activation_5[0][… │
├─────────────────────┼───────────────────┼────────────┼───────────────────┤
│ depthwise_conv2d_6  │ (1, 83, 1, 32)    │        192 │ stream_7[0][0]    │
│ (DepthwiseConv2D)   │                   │            │                   │
├─────────────────────┼───────────────────┼────────────┼───────────────────┤
│ conv2d_6 (Conv2D)   │ (1, 83, 1, 64)    │      2,048 │ depthwise_conv2d… │
├─────────────────────┼───────────────────┼────────────┼───────────────────┤
│ batch_normalizatio… │ (1, 83, 1, 64)    │        256 │ conv2d_6[0][0]    │
│ (BatchNormalizatio… │                   │            │                   │
├─────────────────────┼───────────────────┼────────────┼───────────────────┤
│ activation_6        │ (1, 83, 1, 64)    │          0 │ batch_normalizat… │
│ (Activation)        │                   │            │                   │
├─────────────────────┼───────────────────┼────────────┼───────────────────┤
│ stream_8 (Stream)   │ (1, 83, 1, 64)    │          0 │ activation_6[0][… │
├─────────────────────┼───────────────────┼────────────┼───────────────────┤
│ channel_split_2     │ [(1, 83, 1, 32),  │          0 │ stream_8[0][0]    │
│ (ChannelSplit)      │ (1, 83, 1, 32)]   │            │                   │
├─────────────────────┼───────────────────┼────────────┼───────────────────┤
│ strided_keep_4      │ (1, 83, 1, 32)    │          0 │ channel_split_2[… │
│ (StridedKeep)       │                   │            │                   │
├─────────────────────┼───────────────────┼────────────┼───────────────────┤
│ strided_keep_5      │ (1, 83, 1, 32)    │          0 │ channel_split_2[… │
│ (StridedKeep)       │                   │            │                   │
├─────────────────────┼───────────────────┼────────────┼───────────────────┤
│ depthwise_conv2d_7  │ (1, 77, 1, 32)    │        256 │ strided_keep_4[0… │
│ (DepthwiseConv2D)   │                   │            │                   │
├─────────────────────┼───────────────────┼────────────┼───────────────────┤
│ depthwise_conv2d_8  │ (1, 73, 1, 32)    │        384 │ strided_keep_5[0… │
│ (DepthwiseConv2D)   │                   │            │                   │
├─────────────────────┼───────────────────┼────────────┼───────────────────┤
│ strided_drop_4      │ (1, 73, 1, 32)    │          0 │ depthwise_conv2d… │
│ (StridedDrop)       │                   │            │                   │
├─────────────────────┼───────────────────┼────────────┼───────────────────┤
│ strided_drop_5      │ (1, 73, 1, 32)    │          0 │ depthwise_conv2d… │
│ (StridedDrop)       │                   │            │                   │
├─────────────────────┼───────────────────┼────────────┼───────────────────┤
│ concatenate_2       │ (1, 73, 1, 64)    │          0 │ strided_drop_4[0… │
│ (Concatenate)       │                   │            │ strided_drop_5[0… │
├─────────────────────┼───────────────────┼────────────┼───────────────────┤
│ conv2d_7 (Conv2D)   │ (1, 73, 1, 64)    │      4,096 │ concatenate_2[0]… │
├─────────────────────┼───────────────────┼────────────┼───────────────────┤
│ batch_normalizatio… │ (1, 73, 1, 64)    │        256 │ conv2d_7[0][0]    │
│ (BatchNormalizatio… │                   │            │                   │
├─────────────────────┼───────────────────┼────────────┼───────────────────┤
│ activation_7        │ (1, 73, 1, 64)    │          0 │ batch_normalizat… │
│ (Activation)        │                   │            │                   │
├─────────────────────┼───────────────────┼────────────┼───────────────────┤
│ stream_9 (Stream)   │ (1, 73, 1, 64)    │          0 │ activation_7[0][… │
├─────────────────────┼───────────────────┼────────────┼───────────────────┤
│ channel_split_3     │ [(1, 73, 1, 32),  │          0 │ stream_9[0][0]    │
│ (ChannelSplit)      │ (1, 73, 1, 32)]   │            │                   │
├─────────────────────┼───────────────────┼────────────┼───────────────────┤
│ strided_keep_6      │ (1, 73, 1, 32)    │          0 │ channel_split_3[… │
│ (StridedKeep)       │                   │            │                   │
├─────────────────────┼───────────────────┼────────────┼───────────────────┤
│ strided_keep_7      │ (1, 73, 1, 32)    │          0 │ channel_split_3[… │
│ (StridedKeep)       │                   │            │                   │
├─────────────────────┼───────────────────┼────────────┼───────────────────┤
│ depthwise_conv2d_9  │ (1, 65, 1, 32)    │        320 │ strided_keep_6[0… │
│ (DepthwiseConv2D)   │                   │            │                   │
├─────────────────────┼───────────────────┼────────────┼───────────────────┤
│ depthwise_conv2d_10 │ (1, 59, 1, 32)    │        512 │ strided_keep_7[0… │
│ (DepthwiseConv2D)   │                   │            │                   │
├─────────────────────┼───────────────────┼────────────┼───────────────────┤
│ strided_drop_6      │ (1, 59, 1, 32)    │          0 │ depthwise_conv2d… │
│ (StridedDrop)       │                   │            │                   │
├─────────────────────┼───────────────────┼────────────┼───────────────────┤
│ strided_drop_7      │ (1, 59, 1, 32)    │          0 │ depthwise_conv2d… │
│ (StridedDrop)       │                   │            │                   │
├─────────────────────┼───────────────────┼────────────┼───────────────────┤
│ concatenate_3       │ (1, 59, 1, 64)    │          0 │ strided_drop_6[0… │
│ (Concatenate)       │                   │            │ strided_drop_7[0… │
├─────────────────────┼───────────────────┼────────────┼───────────────────┤
│ conv2d_8 (Conv2D)   │ (1, 59, 1, 64)    │      4,096 │ concatenate_3[0]… │
├─────────────────────┼───────────────────┼────────────┼───────────────────┤
│ batch_normalizatio… │ (1, 59, 1, 64)    │        256 │ conv2d_8[0][0]    │
│ (BatchNormalizatio… │                   │            │                   │
├─────────────────────┼───────────────────┼────────────┼───────────────────┤
│ activation_8        │ (1, 59, 1, 64)    │          0 │ batch_normalizat… │
│ (Activation)        │                   │            │                   │
├─────────────────────┼───────────────────┼────────────┼───────────────────┤
│ stream_10 (Stream)  │ (1, 59, 1, 64)    │          0 │ activation_8[0][… │
├─────────────────────┼───────────────────┼────────────┼───────────────────┤
│ depthwise_conv2d_11 │ (1, 37, 1, 64)    │      1,536 │ stream_10[0][0]   │
│ (DepthwiseConv2D)   │                   │            │                   │
├─────────────────────┼───────────────────┼────────────┼───────────────────┤
│ conv2d_9 (Conv2D)   │ (1, 37, 1, 64)    │      4,096 │ depthwise_conv2d… │
├─────────────────────┼───────────────────┼────────────┼───────────────────┤
│ batch_normalizatio… │ (1, 37, 1, 64)    │        256 │ conv2d_9[0][0]    │
│ (BatchNormalizatio… │                   │            │                   │
├─────────────────────┼───────────────────┼────────────┼───────────────────┤
│ activation_9        │ (1, 37, 1, 64)    │          0 │ batch_normalizat… │
│ (Activation)        │                   │            │                   │
├─────────────────────┼───────────────────┼────────────┼───────────────────┤
│ stream_11 (Stream)  │ (1, 37, 1, 64)    │          0 │ activation_9[0][… │
├─────────────────────┼───────────────────┼────────────┼───────────────────┤
│ flatten_1 (Flatten) │ (1, 2368)         │          0 │ stream_11[0][0]   │
├─────────────────────┼───────────────────┼────────────┼───────────────────┤
│ dense_1 (Dense)     │ (1, 1)            │      2,369 │ flatten_1[0][0]   │
└─────────────────────┴───────────────────┴────────────┴───────────────────┘
 Total params: 27,329 (106.75 KB)
 Trainable params: 26,817 (104.75 KB)
 Non-trainable params: 512 (2.00 KB)
INFO:absl:None
INFO:absl:Saving streaming model
WARNING:absl:ring_buffer_size_in_time_dim overwritten by the passed-in value: 3
WARNING:absl:ring_buffer_size_in_time_dim overwritten by the passed-in value: 4
WARNING:absl:ring_buffer_size_in_time_dim overwritten by the passed-in value: 10
WARNING:absl:ring_buffer_size_in_time_dim overwritten by the passed-in value: 14
WARNING:absl:ring_buffer_size_in_time_dim overwritten by the passed-in value: 22
WARNING:absl:ring_buffer_size_in_time_dim overwritten by the passed-in value: 36
Model: "functional_1"
┏━━━━━━━━━━━━━━━━━━━━━┳━━━━━━━━━━━━━━━━━━━┳━━━━━━━━━━━━┳━━━━━━━━━━━━━━━━━━━┓
┃ Layer (type)        ┃ Output Shape      ┃    Param # ┃ Connected to      ┃
┡━━━━━━━━━━━━━━━━━━━━━╇━━━━━━━━━━━━━━━━━━━╇━━━━━━━━━━━━╇━━━━━━━━━━━━━━━━━━━┩
│ input_audio         │ (1, 2, 40)        │          0 │ -                 │
│ (InputLayer)        │                   │            │                   │
├─────────────────────┼───────────────────┼────────────┼───────────────────┤
│ expand_dims_1       │ (1, 2, 1, 40)     │          0 │ input_audio[0][0] │
│ (ExpandDims)        │                   │            │                   │
├─────────────────────┼───────────────────┼────────────┼───────────────────┤
│ stream_6 (Stream)   │ (1, 1, 1, 32)     │      6,520 │ expand_dims_1[0]… │
├─────────────────────┼───────────────────┼────────────┼───────────────────┤
│ activation_5        │ (1, 1, 1, 32)     │          0 │ stream_6[0][0]    │
│ (Activation)        │                   │            │                   │
├─────────────────────┼───────────────────┼────────────┼───────────────────┤
│ stream_7 (Stream)   │ (1, 5, 1, 32)     │        128 │ activation_5[0][… │
├─────────────────────┼───────────────────┼────────────┼───────────────────┤
│ depthwise_conv2d_6  │ (1, 1, 1, 32)     │        192 │ stream_7[0][0]    │
│ (DepthwiseConv2D)   │                   │            │                   │
├─────────────────────┼───────────────────┼────────────┼───────────────────┤
│ conv2d_6 (Conv2D)   │ (1, 1, 1, 64)     │      2,048 │ depthwise_conv2d… │
├─────────────────────┼───────────────────┼────────────┼───────────────────┤
│ batch_normalizatio… │ (1, 1, 1, 64)     │        256 │ conv2d_6[0][0]    │
│ (BatchNormalizatio… │                   │            │                   │
├─────────────────────┼───────────────────┼────────────┼───────────────────┤
│ activation_6        │ (1, 1, 1, 64)     │          0 │ batch_normalizat… │
│ (Activation)        │                   │            │                   │
├─────────────────────┼───────────────────┼────────────┼───────────────────┤
│ stream_8 (Stream)   │ (1, 11, 1, 64)    │        640 │ activation_6[0][… │
├─────────────────────┼───────────────────┼────────────┼───────────────────┤
│ channel_split_2     │ [(1, 11, 1, 32),  │          0 │ stream_8[0][0]    │
│ (ChannelSplit)      │ (1, 11, 1, 32)]   │            │                   │
├─────────────────────┼───────────────────┼────────────┼───────────────────┤
│ strided_keep_4      │ (1, 7, 1, 32)     │          0 │ channel_split_2[… │
│ (StridedKeep)       │                   │            │                   │
├─────────────────────┼───────────────────┼────────────┼───────────────────┤
│ strided_keep_5      │ (1, 11, 1, 32)    │          0 │ channel_split_2[… │
│ (StridedKeep)       │                   │            │                   │
├─────────────────────┼───────────────────┼────────────┼───────────────────┤
│ depthwise_conv2d_7  │ (1, 1, 1, 32)     │        256 │ strided_keep_4[0… │
│ (DepthwiseConv2D)   │                   │            │                   │
├─────────────────────┼───────────────────┼────────────┼───────────────────┤
│ depthwise_conv2d_8  │ (1, 1, 1, 32)     │        384 │ strided_keep_5[0… │
│ (DepthwiseConv2D)   │                   │            │                   │
├─────────────────────┼───────────────────┼────────────┼───────────────────┤
│ strided_drop_4      │ (1, 1, 1, 32)     │          0 │ depthwise_conv2d… │
│ (StridedDrop)       │                   │            │                   │
├─────────────────────┼───────────────────┼────────────┼───────────────────┤
│ strided_drop_5      │ (1, 1, 1, 32)     │          0 │ depthwise_conv2d… │
│ (StridedDrop)       │                   │            │                   │
├─────────────────────┼───────────────────┼────────────┼───────────────────┤
│ concatenate_2       │ (1, 1, 1, 64)     │          0 │ strided_drop_4[0… │
│ (Concatenate)       │                   │            │ strided_drop_5[0… │
├─────────────────────┼───────────────────┼────────────┼───────────────────┤
│ conv2d_7 (Conv2D)   │ (1, 1, 1, 64)     │      4,096 │ concatenate_2[0]… │
├─────────────────────┼───────────────────┼────────────┼───────────────────┤
│ batch_normalizatio… │ (1, 1, 1, 64)     │        256 │ conv2d_7[0][0]    │
│ (BatchNormalizatio… │                   │            │                   │
├─────────────────────┼───────────────────┼────────────┼───────────────────┤
│ activation_7        │ (1, 1, 1, 64)     │          0 │ batch_normalizat… │
│ (Activation)        │                   │            │                   │
├─────────────────────┼───────────────────┼────────────┼───────────────────┤
│ stream_9 (Stream)   │ (1, 15, 1, 64)    │        896 │ activation_7[0][… │
├─────────────────────┼───────────────────┼────────────┼───────────────────┤
│ channel_split_3     │ [(1, 15, 1, 32),  │          0 │ stream_9[0][0]    │
│ (ChannelSplit)      │ (1, 15, 1, 32)]   │            │                   │
├─────────────────────┼───────────────────┼────────────┼───────────────────┤
│ strided_keep_6      │ (1, 9, 1, 32)     │          0 │ channel_split_3[… │
│ (StridedKeep)       │                   │            │                   │
├─────────────────────┼───────────────────┼────────────┼───────────────────┤
│ strided_keep_7      │ (1, 15, 1, 32)    │          0 │ channel_split_3[… │
│ (StridedKeep)       │                   │            │                   │
├─────────────────────┼───────────────────┼────────────┼───────────────────┤
│ depthwise_conv2d_9  │ (1, 1, 1, 32)     │        320 │ strided_keep_6[0… │
│ (DepthwiseConv2D)   │                   │            │                   │
├─────────────────────┼───────────────────┼────────────┼───────────────────┤
│ depthwise_conv2d_10 │ (1, 1, 1, 32)     │        512 │ strided_keep_7[0… │
│ (DepthwiseConv2D)   │                   │            │                   │
├─────────────────────┼───────────────────┼────────────┼───────────────────┤
│ strided_drop_6      │ (1, 1, 1, 32)     │          0 │ depthwise_conv2d… │
│ (StridedDrop)       │                   │            │                   │
├─────────────────────┼───────────────────┼────────────┼───────────────────┤
│ strided_drop_7      │ (1, 1, 1, 32)     │          0 │ depthwise_conv2d… │
│ (StridedDrop)       │                   │            │                   │
├─────────────────────┼───────────────────┼────────────┼───────────────────┤
│ concatenate_3       │ (1, 1, 1, 64)     │          0 │ strided_drop_6[0… │
│ (Concatenate)       │                   │            │ strided_drop_7[0… │
├─────────────────────┼───────────────────┼────────────┼───────────────────┤
│ conv2d_8 (Conv2D)   │ (1, 1, 1, 64)     │      4,096 │ concatenate_3[0]… │
├─────────────────────┼───────────────────┼────────────┼───────────────────┤
│ batch_normalizatio… │ (1, 1, 1, 64)     │        256 │ conv2d_8[0][0]    │
│ (BatchNormalizatio… │                   │            │                   │
├─────────────────────┼───────────────────┼────────────┼───────────────────┤
│ activation_8        │ (1, 1, 1, 64)     │          0 │ batch_normalizat… │
│ (Activation)        │                   │            │                   │
├─────────────────────┼───────────────────┼────────────┼───────────────────┤
│ stream_10 (Stream)  │ (1, 23, 1, 64)    │      1,408 │ activation_8[0][… │
├─────────────────────┼───────────────────┼────────────┼───────────────────┤
│ depthwise_conv2d_11 │ (1, 1, 1, 64)     │      1,536 │ stream_10[0][0]   │
│ (DepthwiseConv2D)   │                   │            │                   │
├─────────────────────┼───────────────────┼────────────┼───────────────────┤
│ conv2d_9 (Conv2D)   │ (1, 1, 1, 64)     │      4,096 │ depthwise_conv2d… │
├─────────────────────┼───────────────────┼────────────┼───────────────────┤
│ batch_normalizatio… │ (1, 1, 1, 64)     │        256 │ conv2d_9[0][0]    │
│ (BatchNormalizatio… │                   │            │                   │
├─────────────────────┼───────────────────┼────────────┼───────────────────┤
│ activation_9        │ (1, 1, 1, 64)     │          0 │ batch_normalizat… │
│ (Activation)        │                   │            │                   │
├─────────────────────┼───────────────────┼────────────┼───────────────────┤
│ stream_11 (Stream)  │ (1, 37, 1, 64)    │      2,304 │ activation_9[0][… │
├─────────────────────┼───────────────────┼────────────┼───────────────────┤
│ flatten_1 (Flatten) │ (1, 2368)         │          0 │ stream_11[0][0]   │
├─────────────────────┼───────────────────┼────────────┼───────────────────┤
│ dense_1 (Dense)     │ (1, 1)            │      2,369 │ flatten_1[0][0]   │
└─────────────────────┴───────────────────┴────────────┴───────────────────┘
 Total params: 32,825 (128.22 KB)
 Trainable params: 26,817 (104.75 KB)
 Non-trainable params: 6,008 (23.47 KB)
INFO:absl:Function `call` contains input name(s) resource with unsupported characters which will be renamed to dense_1_1_add_readvariableop_resource in the SavedModel.
INFO:absl:Function `call` contains input name(s) resource with unsupported characters which will be renamed to dense_1_1_add_readvariableop_resource in the SavedModel.
…
